…
Precomputing Positional Encoding statistics: ['GraphStats'] for all graphs...
  ...estimated to be undirected: True
  0%|          | 0/4500 [00:00<?, ?it/s]100%|██████████| 4500/4500 [00:00<00:00, 20815.93it/s]
Done! Took 00:00:00.37
Finished processing data:
  Data(edge_index=[2, 36841434], degree=[1024836, 1], cluster_coefficient=[1024836, 1], triangle_count=[1024836, 1], x=[1024836, 1], y=[1024836, 1], num_nodes=1024836, train_graph_index=[2700], val_graph_index=[900], test_graph_index=[900])
COPTModule(
  (model): GNN(
    (encoder): FeatureEncoder(
      (node_encoder): GraphStatsEncoder(
        (linear_x): Linear(in_features=1, out_features=224, bias=True)
        (pe_encoder): Linear(in_features=3, out_features=32, bias=True)
      )
      (node_encoder_bn): BatchNorm1dNode(
        (bn): BatchNorm1d(256, eps=1e-05, momentum=0.1, affine=True, track_running_stats=True)
      )
    )
    (pre_mp): GeneralMultiLayer(
      (Layer_0): GeneralLayer(
        (layer): Linear(
          (model): Linear(256, 256, bias=False)
        )
        (post_layer): Sequential(
          (0): BatchNorm1d(256, eps=1e-05, momentum=0.1, affine=True, track_running_stats=True)
          (1): Dropout(p=0.3, inplace=False)
          (2): ReLU()
        )
      )
      (Layer_1): GeneralLayer(
        (layer): Linear(
          (model): Linear(256, 256, bias=False)
        )
        (post_layer): Sequential(
          (0): BatchNorm1d(256, eps=1e-05, momentum=0.1, affine=True, track_running_stats=True)
          (1): Dropout(p=0.3, inplace=False)
          (2): ReLU()
        )
      )
      (Layer_2): GeneralLayer(
        (layer): Linear(
          (model): Linear(256, 256, bias=False)
        )
        (post_layer): Sequential(
          (0): BatchNorm1d(256, eps=1e-05, momentum=0.1, affine=True, track_running_stats=True)
          (1): Dropout(p=0.3, inplace=False)
          (2): ReLU()
        )
      )
      (Layer_3): GeneralLayer(
        (layer): Linear(
          (model): Linear(256, 256, bias=False)
        )
        (post_layer): Sequential(
          (0): BatchNorm1d(256, eps=1e-05, momentum=0.1, affine=True, track_running_stats=True)
          (1): Dropout(p=0.3, inplace=False)
          (2): ReLU()
        )
      )
    )
    (mp): GNNStackStage(
      (layer0): GeneralLayer(
        (layer): HybridConvLayer(
          (model): HybridConv(256, 256, channel_list=[[1], [2], [4], [0, 1], [1, 2], [2, 4]])
        )
        (post_layer): Sequential(
          (0): BatchNorm1d(256, eps=1e-05, momentum=0.1, affine=True, track_running_stats=True)
          (1): Dropout(p=0.3, inplace=False)
          (2): ReLU()
        )
      )
      (layer1): GeneralLayer(
        (layer): HybridConvLayer(
          (model): HybridConv(256, 256, channel_list=[[1], [2], [4], [0, 1], [1, 2], [2, 4]])
        )
        (post_layer): Sequential(
          (0): BatchNorm1d(256, eps=1e-05, momentum=0.1, affine=True, track_running_stats=True)
          (1): Dropout(p=0.3, inplace=False)
          (2): ReLU()
        )
      )
      (layer2): GeneralLayer(
        (layer): HybridConvLayer(
          (model): HybridConv(256, 256, channel_list=[[1], [2], [4], [0, 1], [1, 2], [2, 4]])
        )
        (post_layer): Sequential(
          (0): BatchNorm1d(256, eps=1e-05, momentum=0.1, affine=True, track_running_stats=True)
          (1): Dropout(p=0.3, inplace=False)
          (2): ReLU()
        )
      )
      (layer3): GeneralLayer(
        (layer): HybridConvLayer(
          (model): HybridConv(256, 256, channel_list=[[1], [2], [4], [0, 1], [1, 2], [2, 4]])
        )
        (post_layer): Sequential(
          (0): BatchNorm1d(256, eps=1e-05, momentum=0.1, affine=True, track_running_stats=True)
          (1): Dropout(p=0.3, inplace=False)
          (2): ReLU()
        )
      )
      (layer4): GeneralLayer(
        (layer): HybridConvLayer(
          (model): HybridConv(256, 256, channel_list=[[1], [2], [4], [0, 1], [1, 2], [2, 4]])
        )
        (post_layer): Sequential(
          (0): BatchNorm1d(256, eps=1e-05, momentum=0.1, affine=True, track_running_stats=True)
          (1): Dropout(p=0.3, inplace=False)
          (2): ReLU()
        )
      )
      (layer5): GeneralLayer(
        (layer): HybridConvLayer(
          (model): HybridConv(256, 256, channel_list=[[1], [2], [4], [0, 1], [1, 2], [2, 4]])
        )
        (post_layer): Sequential(
          (0): BatchNorm1d(256, eps=1e-05, momentum=0.1, affine=True, track_running_stats=True)
          (1): Dropout(p=0.3, inplace=False)
          (2): ReLU()
        )
      )
      (layer6): GeneralLayer(
        (layer): HybridConvLayer(
          (model): HybridConv(256, 256, channel_list=[[1], [2], [4], [0, 1], [1, 2], [2, 4]])
        )
        (post_layer): Sequential(
          (0): BatchNorm1d(256, eps=1e-05, momentum=0.1, affine=True, track_running_stats=True)
          (1): Dropout(p=0.3, inplace=False)
          (2): ReLU()
        )
      )
      (layer7): GeneralLayer(
        (layer): HybridConvLayer(
          (model): HybridConv(256, 256, channel_list=[[1], [2], [4], [0, 1], [1, 2], [2, 4]])
        )
        (post_layer): Sequential(
          (0): BatchNorm1d(256, eps=1e-05, momentum=0.1, affine=True, track_running_stats=True)
          (1): Dropout(p=0.3, inplace=False)
          (2): ReLU()
        )
      )
      (layer8): GeneralLayer(
        (layer): HybridConvLayer(
          (model): HybridConv(256, 256, channel_list=[[1], [2], [4], [0, 1], [1, 2], [2, 4]])
        )
        (post_layer): Sequential(
          (0): BatchNorm1d(256, eps=1e-05, momentum=0.1, affine=True, track_running_stats=True)
          (1): Dropout(p=0.3, inplace=False)
          (2): ReLU()
        )
      )
      (layer9): GeneralLayer(
        (layer): HybridConvLayer(
          (model): HybridConv(256, 256, channel_list=[[1], [2], [4], [0, 1], [1, 2], [2, 4]])
        )
        (post_layer): Sequential(
          (0): BatchNorm1d(256, eps=1e-05, momentum=0.1, affine=True, track_running_stats=True)
          (1): Dropout(p=0.3, inplace=False)
          (2): ReLU()
        )
      )
      (layer10): GeneralLayer(
        (layer): HybridConvLayer(
          (model): HybridConv(256, 256, channel_list=[[1], [2], [4], [0, 1], [1, 2], [2, 4]])
        )
        (post_layer): Sequential(
          (0): BatchNorm1d(256, eps=1e-05, momentum=0.1, affine=True, track_running_stats=True)
          (1): Dropout(p=0.3, inplace=False)
          (2): ReLU()
        )
      )
      (layer11): GeneralLayer(
        (layer): HybridConvLayer(
          (model): HybridConv(256, 256, channel_list=[[1], [2], [4], [0, 1], [1, 2], [2, 4]])
        )
        (post_layer): Sequential(
          (0): BatchNorm1d(256, eps=1e-05, momentum=0.1, affine=True, track_running_stats=True)
          (1): Dropout(p=0.3, inplace=False)
          (2): ReLU()
        )
      )
      (layer12): GeneralLayer(
        (layer): HybridConvLayer(
          (model): HybridConv(256, 256, channel_list=[[1], [2], [4], [0, 1], [1, 2], [2, 4]])
        )
        (post_layer): Sequential(
          (0): BatchNorm1d(256, eps=1e-05, momentum=0.1, affine=True, track_running_stats=True)
          (1): Dropout(p=0.3, inplace=False)
          (2): ReLU()
        )
      )
      (layer13): GeneralLayer(
        (layer): HybridConvLayer(
          (model): HybridConv(256, 256, channel_list=[[1], [2], [4], [0, 1], [1, 2], [2, 4]])
        )
        (post_layer): Sequential(
          (0): BatchNorm1d(256, eps=1e-05, momentum=0.1, affine=True, track_running_stats=True)
          (1): Dropout(p=0.3, inplace=False)
          (2): ReLU()
        )
      )
      (layer14): GeneralLayer(
        (layer): HybridConvLayer(
          (model): HybridConv(256, 256, channel_list=[[1], [2], [4], [0, 1], [1, 2], [2, 4]])
        )
        (post_layer): Sequential(
          (0): BatchNorm1d(256, eps=1e-05, momentum=0.1, affine=True, track_running_stats=True)
          (1): Dropout(p=0.3, inplace=False)
          (2): ReLU()
        )
      )
      (layer15): GeneralLayer(
        (layer): HybridConvLayer(
          (model): HybridConv(256, 256, channel_list=[[1], [2], [4], [0, 1], [1, 2], [2, 4]])
        )
        (post_layer): Sequential(
          (0): BatchNorm1d(256, eps=1e-05, momentum=0.1, affine=True, track_running_stats=True)
          (1): Dropout(p=0.3, inplace=False)
          (2): ReLU()
        )
      )
    )
    (post_mp): COPTInductiveNodeHead(
      (layer_post_mp): MLP_custom_act(
        (model): Sequential(
          (0): Linear(
            (model): Linear(256, 1, bias=True)
          )
        )
      )
      (last_act): Sigmoid()
    )
  )
)
accelerator: cpu
ba:
  large:
    n_max: 1200
    n_min: 800
  n_max: 300
  n_min: 200
  num_edges: 4
  num_samples: 5000
  small:
    n_max: 300
    n_min: 200
  supp_mtx: ['edge_index']
benchmark: False
bn:
  eps: 1e-05
  mom: 0.1
bp:
  mean: 10
  n_max: 30
  n_min: 10
  num_samples: 10000
  p_edge_bp: 0.3
  p_edge_er: 0.1
…
